WellBee_assistant/model/disease_predict_model.pth (torch_old, 79508 bytes, 6 tensors)

hidden_layers.0.weight f4 [128, 20]
00000000: 7dd1 643d 43b4 86bd 3887 81bd 5df1 c73d
00000010: 1f5f 113d 69af 7e3c c83b 02bd 67f2 903d
00000020: d5e9 c83d 57d2 b43b e5fb eabd 5a9b ebbc
00000030: 7a72 ba3d bfb3 dfbb 4517 8cbd 04ff 6a3d
00000040: b760 7c3d 4214 6e3c 38d0 d1bd 2b64 b2bd
00000050: 852e 213d cbd1 f33c c948 613d fb62 85bd
00000060: b85d 8cbd e666 923d 6ed6 84bd e55b 5abd
00000070: e30c a4bd c817 0abb ee1d 793b 9dae a83d
00000080: f7cb 9e3d 7f61 2a3d 6d07 cc3d aa21 3b3c
00000090: 017c c8bd cc2a 78bc 46e3 293d 3c29 bfbd
000000a0: eae4 21bd c309 943c 7de6 573d 7eb1 b1bb
000000b0: 0477 f63c e5bb 92bd 1a4d f13d 932d f73c
000000c0: b7f0 9bbd d6fb a5bd 9acb a83d f5f2 85bc
000000d0: d6e8 a6bd 4c7f 47bd fafd b7bd 0700 02bd
000000e0: 446f b73d e6d3 b73d 77d3 5e3d 7a44 72bd
000000f0: 50f2 983c 142a 893d 75ac 963d 2411 a73d
00000100: 2ea7 b63d 3df0 d2bc ea96 98bc dba3 db3d
00000110: 145b fabc a005 fa3d 2ed4 3dbd 53d1 303d
00000120: 25de 82bc 77e2 423d c29b cdbc fbfd d4bc
00000130: 5397 363d e525 c03c 0c0d 003e 7257 4f3d
00000140: 71d1 dbbd 3bcf 44bd fc04 513d c777 9dbd
00000150: 21f1 55bd c1c1 b53d 1db1 923d 5e5c 723d
00000160: f418 95bd eb42 85bd 064c 913c eaf8 7dbd
00000170: 2480 80bd 9d0f 893d b265 d6bd ae51 823c
00000180: 9ec6 1cbc ad94 8d3d 420d ae3c d8a9 1c3d
00000190: 2c20 553d 4d4f 8abc 763b d1bc 2aa6 62bc
000001a0: 5e0c e83d 46b2 773c e315 a43d 0ae7 4a3d
000001b0: 3511 bf3c 8e41 b33d 4c78 bfbb c838 4d3d
000001c0: 9b72 60bd 8262 48bd ea29 a0bd d600 fd3d
000001d0: 1451 a0bd e6f8 e73d 56e0 803d 21f3 9f3d
000001e0: 5dc9 88bd 2e42 cabd 2c12 69bd fcda c23c
000001f0: e119 5dbc f22e 22bd 6c77 eabc 9862 ee3c
00000200: 8cec 8dbd 4a15 8c3d 3798 70bc 9db4 4d3d
00000210: 6a4c c33d 9f34 48bd 06c5 1f3c 39fe b2bc
00000220: 8161 a43c 38ab fcbb 9607 9abb f75d 903c
00000230: 4a76 57bd 19aa a6bd 962f ecbd 9fb5 b0bd
00000240: a604 543b 8218 d6bd ca71 d4bd 7fcd 6bbb
00000250: 9cb6 ddbd e270 cbbd 7ac0 993c 5a26 283c
00000260: 1486 46bd d7c3 fcbd 2165 77bd 3187 e9bd
00000270: 037f 97bd f7cd d8bd 1a7f 843c d141 80bb
00000280: 1813 8d3d 86b1 70bc 943d b13d 2913 143d
00000290: 5243 0c3d 8a88 b73d bcb0 4b3b fd69 acbb
000002a0: c718 f8bc 7a7b a5bd 6b1c 11bd e23b bb3a
000002b0: ca74 78bd d1cc a9bd a7a2 bb3d 2f28 31bd
000002c0: 8134 0e3d cf10 bfbd a793 363d 221c c9bc
000002d0: 29f2 483d 493a 7fbc e1a4 913c 533c 44bd
000002e0: 98f2 633d ad6d f33d c1fb e23d f471 5c3d
000002f0: 0c4b e33d b814 813c 9a39 423d 163e eb3d
00000300: 48bc cf3d 611c c53c d75d de3d e62c 953d
00000310: 268b 6e3d 9896 16bd b140 aa3d 5d94 7d3d
00000320: 2d5a 76bd 0794 38bd 4860 f5bd 4f13 a9bd
00000330: 73c3 08bc 3f0b 26bd 49c8 efbd 49fd 8abd
00000340: 5427 78bd cf0a 83bd 71a0 8ebc cf83 e43b
00000350: 70e6 88bd 9322 c2bd 99ca 18bc 7ca6 6f3c
00000360: 6174 283d 97ee 76bd 8e8e 94bd de1a 3abc
00000370: c0fb 873b 4d67 183c 8972 603d a03f 4a3d
00000380: 16b0 c43d 5bcc ee3d 3e47 e33d e66b aa3d
00000390: 0e28 28bd 3bab aa3d 9e6e d3bc 8f9b d93d
000003a0: c5cb e63d 1625 833d 27e8 a53d a1ea 3fbd
000003b0: e939 cc3d 0b56 8d3d 96b6 583d a26e 20bd
000003c0: adcf c7bd 5f5a 01bd a49f f7bd 05ab 8b3c
000003d0: 90d2 febb 4d41 e2bd 4865 d9bd 8a19 f1bd
000003e0: ea91 b0bd 4184 bbbc 034c adbc 75c6 463d
000003f0: 1f60 3dbc ee63 22bd 2ebc ebbd af4b 26bc
0.055863846 -0.06577351 -0.06324619 0.09762833 0.035491105 0.015544751 -0.031795293 0.070774846
0.09810225 0.0055182385 -0.11473826 -0.0287606 0.09103866 -0.0068268473 -0.06840376 0.057372108
0.061615672 0.014531197 -0.10244793 -0.08710512 0.039351005 0.029763123 0.055001054 -0.0651302
-0.06853813 0.071485326 -0.06486212 -0.053310294 -0.080102704 -0.0021071304 0.0038012224 0.0823643
0.07753747 0.041596886 0.09962354 0.0114216 -0.09789277 -0.015146922 0.04147651 -0.09334037
-0.03952495 0.018071061 0.052710045 -0.00542277 0.030086048 -0.07164744 0.11782284 0.030173099
-0.07614272 -0.081046745 0.08241959 -0.016351203 -0.08149879 -0.048705384 -0.08983989 -0.031738307
0.08956769 0.08975963 0.054400887 -0.059147336 0.018670231 0.06697479 0.07357112 0.08157566
0.08918606 -0.02574932 -0.018626649 0.10724612 -0.030561008 0.12208104 -0.04634493 0.043168377
-0.015975067 0.047579255 -0.025098685 -0.026000014 0.044577908 0.02345557 0.12504977 0.050620504
-0.10733307 -0.048049193 0.051030144 -0.07688861 -0.05223191 0.08874846 0.07162688 0.05917012
-0.0728015 -0.06506904 0.017736446 -0.06200496 -0.06274441 0.06692431 -0.104686156 0.015908089
-0.009568838 0.06913123 0.021246556 0.038247913 0.052032635 -0.016883517 -0.025541048 -0.013833562
0.11330484 0.015118187 0.08011987 0.049536742 0.023323635 0.08752738 -0.005843198 0.05010298
-0.054796796 -0.04892207 -0.078204945 0.12353675 -0.078279644 0.113267705 0.06292789 0.07810045
-0.06679032 -0.09875904 -0.056902096 0.02378606 -0.01349494 -0.03959555 -0.028621398 0.029099748
-0.06929883 0.06839998 -0.014684728 0.050221074 0.09536059 -0.04887831 0.009751564 -0.021849738
0.020066025 -0.0077108406 -0.0047006113 0.01762293 -0.052603044 -0.08137912 -0.11532514 -0.086283915
0.0032351403 -0.10453893 -0.10373266 -0.003598064 -0.108258456 -0.0993364 0.018768538 0.01026305
-0.04846771 -0.12342041 -0.06039918 -0.11402739 -0.073972724 -0.1058616 0.016173888 -0.003914096
0.068884075 -0.014690762 0.08654323 0.036151085 0.03424389 0.0896159 0.0031080684 -0.005261658
-0.030285252 -0.08080192 -0.035427492 0.0014284814 -0.060658254 -0.08291019 0.09161883 -0.043251213
0.03471804 -0.09329378 0.044574406 -0.024549548 0.049059067 -0.015577861 0.017778816 -0.047909092
0.055651277 0.11886153 0.110831745 0.05381961 0.110982984 0.01575695 0.047418214 0.11486451
0.10143334 0.024061384 0.10857742 0.07283954 0.05823817 -0.03676471 0.0831312 0.06190907
-0.060144592 -0.045063045 -0.11981255 -0.08255636 -0.00834738 -0.04053807 -0.11708123 -0.067865916
-0.06058438 -0.06398546 -0.017410489 0.0069737206 -0.066845775 -0.09479251 -0.009325647 0.014627095
0.041126613 -0.06028613 -0.07253753 -0.011358945 0.004149884 0.009301973 0.05479673 0.049377084
0.09603898 0.116600715 0.11097573 0.08321361 -0.041053824 0.08333441 -0.025809582 0.106253736
0.11269335 0.06403558 0.0810092 -0.04685462 0.09971983 0.06901177 0.052908503 -0.039168008
-0.09756408 -0.031580325 -0.12090996 0.017049322 -0.007776566 -0.110476114 -0.10615021 -0.11772449
-0.08621581 -0.022890212 -0.02115441 0.048529107 -0.011558562 -0.03964608 -0.11510502 -0.01014988

hidden_layers.0.bias f4 [128]
00000000: f86f 393e 28b4 253e c962 253e 1d16 da3d
00000010: 7142 433e 1d6f 303e 07b5 283e 546b 443d
00000020: ca7a f13d 6472 8c3d caa0 7b3d 9464 e73d
00000030: 6c7b ed3d e6f2 363e 38e2 c43d 8a0c a73d
00000040: 7243 223e 6edf 3f3e e587 223e 1dc4 5d3d
00000050: 5255 2f3e 9264 243e d199 033e deb0 373e
00000060: 252d 2f3e 24ea 973d fa18 2a3e 62bd e03d
00000070: c263 d63d 72d2 263e 5c63 af3d 081f 313e
00000080: 1847 263e dcd3 723d 6a30 323e 6ed9 1a3e
00000090: 73d2 273e 1c6f 303e 92b6 213e 9c76 0c3e
000000a0: 6ce8 243e 400e 243e f948 063e 9d3a 253e
000000b0: 34d3 8c3d 77ed 393e 7604 393e fb61 4d3d
000000c0: b9a9 e43d d120 233e a8f4 2f3e 0e9d 413e
000000d0: 3412 093e e546 013e aaa5 0d3e 5ef1 003e
000000e0: 6e99 773d 1d23 fa3d a906 113e 3cc9 413d
000000f0: 94ed b53d 9ca0 e53d c9f5 3d3e 4854 563d
00000100: 5bbc 373e 073b 283e b8a7 3c3e 740f 353e
00000110: 4bc6 003e 24a3 f63d 284d 373e db3c 2e3e
00000120: 3745 043e a29a 313e e68c 373e 5733 c03d
00000130: f5c8 2b3e 91f3 243e 86d0 1d3e 4b61 253e
00000140: c542 243e bdb0 2d3e fb9d ab3d 8c6d 1c3d
00000150: 66d8 183e d654 323e 7232 1d3e 3595 0b3e
00000160: b7d8 8a3d 3562 363e 965c 643d 9e6c 353e
00000170: 0322 2d3e 58e8 9e3d 6ef9 013e 962e 383e
00000180: ed0a 2d3e 95d6 393e 1647 7e3d 0541 ed3d
00000190: 2c8c ca3d 9114 1a3e 43d9 2d3e c155 b13d
000001a0: f6a4 2f3e b391 2d3e ef45 273e 4425 3b3e
000001b0: 9d2a 183e 41b2 3a3e 8b56 153e 308c 2e3d
000001c0: 78fa f03d 5f7a 283e 1ca6 373e fd12 273e
000001d0: 3cb7 373d 8e8f b53d c3be 283e 0084 3d3e
000001e0: fe0f 3c3e e63d 3d3e 2a54 f73d e866 283d
000001f0: 9b12 383e 85d3 303e 6241 0f3e 06e8 ff3d
0.18109119 0.16182005 0.16150965 0.10648749 0.19068314 0.17229886 0.16475306 0.04795392
0.11790998 0.06857756 0.061432637 0.11298481 0.115958065 0.17866096 0.0961346 0.081566885
0.15846041 0.18737575 0.15872152 0.054142106 0.17122391 0.1605399 0.12851645 0.17938563
0.17107065 0.07417706 0.1661109 0.10973622 0.10468246 0.16291216 0.08563873 0.17296994
0.16238058 0.059284076 0.17401281 0.15122005 0.16388874 0.17229885 0.15792301 0.13717121
0.16104287 0.16021061 0.13113774 0.1613564 0.06876221 0.18156992 0.18068108 0.05014227
0.111651845 0.15930487 0.17183173 0.18907568 0.1338585 0.126247 0.13832727 0.12592074
0.060449056 0.122137286 0.14162697 0.047311053 0.08883205 0.112122744 0.18550791 0.05232647
0.17942946 0.16428767 0.18423355 0.17681676 0.12575643 0.12042835 0.17900527 0.17015402
0.12917028 0.17344144 0.17924842 0.09384792 0.16775878 0.16108538 0.15411577 0.16150396
0.16041096 0.16961952 0.08379742 0.03819041 0.149263 0.17415175 0.15351275 0.13631137
0.06779616 0.178109 0.05575236 0.17717215 0.16907506 0.0775916 0.12692806 0.17986521
0.16898699 0.18148263 0.06207951 0.11584667 0.09890017 0.15046908 0.1697741 0.086589344
0.17152771 0.16950111 0.16335271 0.18275934 0.14860006 0.18232061 0.14583795 0.042614162
0.11766523 0.16452931 0.1793446 0.16315837 0.04485248 0.088652715 0.1647902 0.18507385
0.18365476 0.18480644 0.120766 0.041113764 0.17975847 0.17268188 0.13989785 0.12495427

hidden_layers.1.weight f4 [128, 128]
00000000: 3f3d a23d 24f8 ad3d 7230 913c 5df1 eebc
00000010: ab8f 233c c121 8139 a655 7c3d bcbc b23c
00000020: d621 773d 45a3 1b3d c019 39bd b726 8d3d
00000030: 65ab 05bd 5877 a8bc ae16 89bd d227 003d
00000040: 6626 ec3d a1d0 8b3c c2be 9b3d 2bbf a23c
00000050: f5b1 303c 1bf3 693c 3a22 45bd 198f 993c
00000060: c924 ed3d 1adc b43b 5a87 3d3b f5fc 82bd
00000070: 79de 633d 3587 9fbc a2be 593d e004 3c3d
00000080: ffc4 cfbc f646 f83c a8cb 1b3c ba8a fc3d
00000090: 4560 c73d 18dd 05bd 4497 bb3d f320 063c
000000a0: c688 233d 55fd 073e 0fd7 ba3d 5a0c 1c3c
000000b0: d91e 55bd 2a36 233d 3480 ca3c 17d1 4b3d
000000c0: f30a 093c 7055 963d 27ed 913d 7210 6a3d
000000d0: 829e 603d 1672 623d d621 833c 2cd8 303d
000000e0: 2330 083c 5916 9c3d b456 fdbc 6817 dd3c
000000f0: 9d67 32bb b0ad 763c eb3a ffbc 92cd 673d
00000100: 0014 6bbd 65e6 a53d 7928 883d f9d6 003e
00000110: fb1c 71bd e147 503d ac7b fe3b ad4b 8c3d
00000120: 1847 dc3c 4d2f f23c 0d93 24bc 4dfb efbc
00000130: 7c49 5ebc 5d90 10bd 309f 0f3e d8c0 8e3d
00000140: db68 c63c d3d3 2cbc 2dcd a9bc d5f1 713d
00000150: 63e8 793b 132f 2c3d afec 92bb 63cb aebb
00000160: d269 80bd ed3f cb3d 523d 41bc 923e b83b
00000170: 580f d43d 3352 263d 88b9 52bd 80ea acbc
00000180: c66a d3bc 6111 b1bc 13eb 1bbd 8a3f b33d
00000190: 4ff7 85bd 59cd 47bc 418e 44bd d099 d8bc
000001a0: ea6f 8fbb a236 2abc 42d0 50ba c0e3 d23c
000001b0: 9fe5 95bd 37d2 823d 3f85 9ebc 2ea4 bb3d
000001c0: 9ebf a53d 5468 f83d 2282 963d b704 0ebd
000001d0: 6b0e a2ba 210e 093c 6d3f 02bd 9b6e e23d
000001e0: a4b3 7dbd 4c05 af3b a750 e93d 8ea0 3ebd
000001f0: 1954 a13c 5631 593d 5c0a fa3c 730b d33d
00000200: e710 88bc b133 4ebc cf2d 0b3d 06ec e63d
00000210: 5eb6 ab3d 7ec0 003e 2c3b 40bc 31a5 7cbd
00000220: 8b42 6c3d 5652 a93c a9c8 80bc 1913 0fbd
00000230: 4dd3 e03b 1a99 223c 18d3 a8bd bc17 bdbd
00000240: a8f4 ba3c 09b9 c63d 77b3 b63d 9932 503d
00000250: eb2c ec3d 3920 eabc 8f4e 1b3c 23d7 003e
00000260: d457 5b3c 10db 723d 3cdd 5abc 8fd8 8abd
00000270: c9cd 923d 541d b53d 9478 8dbc 9945 863c
00000280: 55a4 d03d 14fb 583d 5fd6 4f3d 9fef ae3d
00000290: af0f 8e3c 6cd5 0dbd b3f6 bc3a 9131 103d
000002a0: eaef 0b3e db4a a33d 37ad 88bc 5953 e63c
000002b0: d959 6d3d afe3 113e 3adc 083e b139 30bd
000002c0: 551d e13d d229 013d 8447 39bc 1741 88bd
000002d0: 0a75 023e d0ba 053e 001b 083d 83fa 1fbd
000002e0: 6481 11bd 2ae3 733d fe37 33bd 0c35 7cbc
000002f0: 19d5 c3bc fc4f f13d fae3 c83d 471c 2cbc
00000300: 2a14 99bd 9954 f13c 2f6d 7abd f736 ae3d
00000310: f6c3 9a3d 9f59 443d 9093 cb3d 060f 833d
00000320: 19fd cd3d cbb2 8c3d 32f0 0e3e 8fab 133c
00000330: 76a6 803d 28b9 dc3d 6765 ea3d f51e 0a3e
00000340: 4b01 c83d 3375 3d3c 8b94 56bc 993d 35bd
00000350: 7bbc ad3d 5871 3b3d cb4d 403c e2c8 1e3d
00000360: 1f91 393d e3ab 9aba 7420 1fbd d93d c03d
00000370: f5ed 873d 6b51 e73c fe59 5ebd 4fd2 cf3d
00000380: 891c c33d db1b bb3d 66a7 583c 80e3 87bd
00000390: c72d 293b 2b47 993c 8bdd 643d 15bb 303d
000003a0: 3d2b a53d 354c 62bc 0b3d cfbc 5329 873c
000003b0: 7674 05bd e3b3 103e 1c8d bb3d 8dc2 c53d
000003c0: 256a 5e3d 3b5f 8c3c 7be0 96bd d436 7f3d
000003d0: 05be 123d eaa8 c6bc 777f bc3d dcc0 dfbc
000003e0: 980a 423b 1a70 5cbd f010 973d c3d9 97bd
000003f0: 7b5e 51bc 5986 e33d a3e7 963c d6c6 ff3d
0.07921838 0.08494595 0.017723296 -0.029167825 0.009982984 0.00024629946 0.06160512 0.021818511
0.060335003 0.037997503 -0.045190573 0.0689215 -0.032634158 -0.02056472 -0.06693779 0.031287976
0.115307614 0.017067255 0.076047435 0.019866547 0.010784616 0.014279152 -0.048128344 0.018744992
0.11579282 0.005519402 0.0028919787 -0.06395904 0.05563209 -0.019473651 0.053160317 0.045903087
-0.02536249 0.030307274 0.009509005 0.123311475 0.09735159 -0.032681555 0.09159711 0.008186567
0.03992536 0.13280232 0.091230504 0.009524429 -0.05203137 0.039846577 0.024719335 0.04975995
0.008364427 0.07340515 0.07125311 0.05714459 0.054838665 0.055284582 0.016007345 0.043174908
0.008312258 0.0762145 -0.030925132 0.0269887 -0.0027222403 0.015056059 -0.031156024 0.05659253
-0.05739212 0.08100585 0.066483445 0.12582006 -0.05886553 0.0508498 0.0077662077 0.068503715
0.026889369 0.02956357 -0.010044825 -0.029294634 -0.013567325 -0.035293926 0.14025569 0.06970376
0.02421992 -0.01054855 -0.020727718 0.05906852 0.0038132898 0.04203708 -0.0044837813 -0.005334304
-0.062701836 0.09924302 -0.011794405 0.0056226933 0.10354489 0.040605735 -0.051446468 -0.021107912
-0.02580775 -0.021614732 -0.03806598 0.087523535 -0.06541311 -0.012194955 -0.047987226 -0.026440531
-0.004377355 -0.010389002 -0.0007965603 0.025743365 -0.073191874 0.063877515 -0.019350646 0.09162174
0.08093189 0.12129274 0.073490396 -0.034672465 -0.0012363916 0.008365185 -0.03179877 0.110562526
-0.061938897 0.0053412076 0.11392336 -0.046539836 0.019693421 0.053025566 0.030522518 0.10304918
-0.016609622 -0.012585566 0.033979233 0.11275487 0.08384393 0.1257343 -0.011732858 -0.061680976
0.057680648 0.020669144 -0.015720682 -0.034930322 0.0068611265 0.009924198 -0.08243388 -0.092330426
0.02282174 0.097032614 0.08920949 0.050829504 0.11532005 -0.028579818 0.009479179 0.12582068
0.013387639 0.059290946 -0.01335841 -0.067795865 0.07168157 0.088434845 -0.01726941 0.016390609
0.10187594 0.05297382 0.05074155 0.08541798 0.017341463 -0.034627363 0.0014416784 0.03520352
0.13665739 0.07973262 -0.016684158 0.028115915 0.057947014 0.1424701 0.1336526 -0.04302377
0.10991923 0.031534024 -0.011308555 -0.0665304 0.1273996 0.13059545 0.033228874 -0.039057266
-0.035523787 0.059542812 -0.04375457 -0.015393507 -0.023905324 0.11782834 0.09809108 -0.010504789
-0.07474549 0.029459285 -0.06113928 0.085065775 0.07556908 0.04793703 0.09940255 0.0639935
0.1005804 0.068700396 0.13958815 0.009013071 0.0628175 0.10777503 0.11445122 0.13488372
0.097658716 0.011563587 -0.013096939 -0.044248197 0.084832154 0.04576239 0.011737297 0.038765796
0.045304414 -0.0011800494 -0.03884931 0.093867965 0.066371836 0.028237065 -0.054285042 0.10147535
0.09526927 0.091361724 0.013223505 -0.06635189 0.002581464 0.018710693 0.055875342 0.043147165
0.08064888 -0.0138121145 -0.025297662 0.016499197 -0.03258177 0.14131121 0.09157774 0.09656248
0.054300446 0.017135253 -0.07367035 0.062308148 0.035825748 -0.024250466 0.092039995 -0.027313642
0.0029608365 -0.053817846 0.073762774 -0.074145816 -0.012778874 0.11109609 0.018421 0.12489097

hidden_layers.1.bias f4 [128]
00000000: d7fb 1b3e 5412 193e 977d 653d 8707 2b3e
00000010: 7f7e 693d 0219 be3d 5f9e 7d3d f3b0 953d
00000020: 9d8f 883d 8bb9 2b3e cbb5 af3d 7508 643d
00000030: eb3f 8a3d 7a89 1e3e 89e1 8b3d 9d30 4e3d
00000040: 29e0 1c3e 42e8 233e 5632 293e 7a91 a63d
00000050: c7dc 5d3d a9a7 f13d be1a 163e 21e2 9c3d
00000060: d76d a13d 2baf 253e d330 563d f050 f83d
00000070: 81b1 843d 451a 6b3d 8503 1a3e 6fad b33d
00000080: 5b20 5f3d 3d7d e03d 10b2 da3d 4863 1e3e
00000090: 94ba 9f3d 2564 203e c4ba 903d 99ee 673d
000000a0: b747 323e 6b7f 263e cdcd 283e a713 2d3e
000000b0: c127 8e3d 9c11 203e a78d 263e 4b2f b73d
000000c0: a8ef 7a3d 7869 143e d95c 623d 8cb7 1a3e
000000d0: df50 1a3e 46ac 723d f7bd d83d 4e2f c53d
000000e0: 21dc 143e 23a4 0a3e c1a1 2a3e f8df 543d
000000f0: 2714 093e 4ea9 713d 0f0b fe3d a4d4 293e
00000100: db62 1f3e 7a30 223e 518a 1f3e c29c 293e
00000110: 08b5 8a3d 9bd5 113e b352 9d3d 64b1 223e
00000120: f6e8 263e fc3a 753d 94a1 2c3e 8a16 1a3e
00000130: af75 a53d 8338 1d3e 17d6 063e 7c1c 173e
00000140: c337 2f3e 6c35 203e e38e 8d3d 73e6 233e
00000150: 7dd7 563d fcf0 a93d 9065 553d c39e 143e
00000160: 390a 173e 56d4 883d 0e6b 433d 5971 2e3e
00000170: 6d71 1d3e bc0c 233e f0f5 293e 7c18 373e
00000180: 92de 323e e202 1b3e 9b95 203e 6ebb 1a3e
00000190: f259 ab3d 6773 d23d 3b0b 2a3e 3f48 943d
000001a0: bca0 043e 2dfa b03d 2ef0 2f3e 46e1 153e
000001b0: b200 613d 92b9 1d3e 0d40 853d 88ee c33d
000001c0: ac59 cf3d fe80 933d 496a 183e 691f 553d
000001d0: 931f 0b3e 9ec3 8b3d 735d 9e3d 6e0c 723d
000001e0: 4264 a93d 6d8a 1b3e b4ff 2f3e 7f0d 293e
000001f0: 29bb 243e 6fc5 e13d 0011 ad3d 1e2a 183e
0.15232788 0.14948398 0.056027975 0.1670209 0.0570054 0.092821136 0.061918613 0.07309141
0.06668017 0.16769998 0.08579596 0.055672128 0.06750473 0.1548213 0.06830127 0.05033933
0.15319885 0.16006568 0.16523108 0.08133216 0.054165628 0.11799557 0.14658639 0.07660318
0.078822784 0.16180103 0.052292656 0.121248126 0.06479169 0.0573981 0.15040405 0.08773314
0.054474216 0.10961387 0.10678494 0.1546756 0.07799259 0.15663202 0.07066873 0.05662403
0.1741017 0.16259544 0.16484757 0.16902028 0.06941176 0.15631717 0.16264974 0.08944567
0.06126371 0.14493358 0.055264328 0.1510908 0.15069912 0.059246324 0.10583108 0.09628163
0.14537098 0.13539176 0.16663267 0.051971406 0.13386594 0.058999352 0.12404453 0.16585022
0.15565054 0.15838805 0.15580107 0.16563705 0.0677281 0.1424164 0.07681789 0.15887982
0.16299805 0.059870705 0.16858512 0.1504766 0.08079087 0.15353589 0.13167606 0.1475696
0.17111115 0.15645379 0.06912019 0.16005878 0.0524516 0.08297917 0.05209881 0.14513688
0.14749993 0.06681125 0.047709517 0.17035426 0.153753 0.15922827 0.16597724 0.17880434
0.17467716 0.15137818 0.1568207 0.15110561 0.08366765 0.102759175 0.16605847 0.07240342
0.1295194 0.08641467 0.17181465 0.14636716 0.054932304 0.1540282 0.06506357 0.095669806
0.101245254 0.07202338 0.14884295 0.05203191 0.13586263 0.068244204 0.07732668 0.059093885
0.08271076 0.15189524 0.17187387 0.16509055 0.16087021 0.110239856 0.08450508 0.14859816

last_layer.weight f4 [3, 128]
00000000: 1e1c ae3c 0ddf f53c e0e9 cd3d a964 18be
00000010: f5dc 803d ae72 e7bc 83af f13b b219 f9bd
00000020: 5ff4 cebd 18ff f1bc 9185 023e d3e2 fd3c
00000030: 2021 083e 3dbd 00be 7bfb 2dbd 4e2e 973d
00000040: ba8f bcbd 3fba 18bc a893 cabd 0ea3 eb3c
00000050: bbc5 963d 1924 32bc 0fd6 953d 8788 f33d
00000060: c8e2 febc 8aa9 e8bd 5503 883c 067d f6bd
00000070: 5f74 b8bc e46c d33d 86cc 2f3d ace6 e03d
00000080: 08c6 013d 69d0 e2bd 6996 c13d 418c ffbd
00000090: 9872 b9bd 43a0 a7bd 04c6 d339 6320 853d
000000a0: c694 07be 69f4 b9bd 49cb 8bbd a555 0abe
000000b0: f75d 9c3d c173 e13c c741 c8bd 5ded 0dbd
000000c0: ea29 4338 9570 433d dd29 aa3d 1e79 03bd
000000d0: 4cd7 583d 68e6 38bc e444 5d3c d00f 943d
000000e0: 8ce1 a23d 000b e03d d3bc 9abd dfa4 fe3d
000000f0: 2577 0fbe b1a7 ef3d 3a5d 20bd b50c b2bd
00000100: ae5d 5fbd 121b e1bd 10b7 99bd 95a8 3abd
00000110: ea3a d5bc 56d4 a83d 9618 9c3d 7627 b93d
00000120: 71ac 16be 09fd 9e3d b9f0 233c 1613 01bb
00000130: d6f9 813d e0e5 9ebd 9149 a93d f8dc 10be
00000140: ee1f e3bc c647 3c3d 803c 6abd 345c 82bd
00000150: 0a85 0fbd a169 44bd 3739 353d 90b0 de3c
00000160: 2748 92bd 081b 0cbd aa4e 813c 347e 25bc
00000170: 1b98 b5bd 14e0 edbd b752 60bb 58d0 663b
00000180: cbcb a23b 3b9b febc 627b 36bd f1bd e0bd
00000190: 9f67 96bc 4408 003e fdce 9bbd 72d6 d43d
000001a0: c070 98bd 6bff a6bd 0ef5 f5bd 72fc b2bd
000001b0: 9d75 c4bc 3386 f2bd dcec 0dbd 3496 803d
000001c0: 27b6 edbd 0cda 05bd 88e0 673d 4c4a e1ba
000001d0: 8c7d 9b3d a9cf fc3d 6b4a 443d 7849 d63d
000001e0: 947d ecbc 1f00 03be 9dc4 40bc fe5a ecbd
000001f0: ee1f 00be ceb5 b8bd 7c41 0c3c 0b9b 41bc
00000200: e52c f53d e106 b13d da28 b5bc 07c4 ca3d
00000210: 3ebf c7bd f1c2 58bc dcc1 d9bc 2220 95bd
00000220: e4f0 b6bd 66a9 ea3d 7740 9bbc f107 eb3b
00000230: ccc9 12be 5f17 f53d c511 b4bc dabe edbd
00000240: 6dde b63d dbc3 c73c 0dc5 c33d 051b abbc
00000250: aa0d 80bc 43d8 3abd 0cb0 a33d 8ff1 0abe
00000260: ad2b a4bc f27c 893d b9a7 01be 235b 7dbd
00000270: a845 68bd 2e9e 68bd b0b4 2d3d 4bf3 63bc
00000280: 18f1 9ebd bc27 9abc 1920 2abd 4ebb b93d
00000290: 29e6 a7bd e26f e63d ba00 1abd f901 b7bc
000002a0: 4f3a a2bb f8d3 223e 49cc b33d 2f54 903d
000002b0: 1eef 7bbd 4c03 fb3d ee27 903c 670f 92bd
000002c0: e524 65bd 3cc3 503d 1495 dcbc d0f7 ac3d
000002d0: ead0 633d ab2f 9dbd cd58 87bd 5cde 473d
000002e0: f2f5 d83d 1da1 633d 5e1d cf3d 8f2f 31bd
000002f0: 00c6 ac3b 3c2d a2bd 22d3 b13d 0098 a43d
00000300: 4c6f 143d ab3a 063d be8f bc3d 651d 003e
00000310: e915 e7bd 1187 2f3d 2ee1 eabd 5173 d83d
00000320: 2405 bd3d b05f 82bd cbc8 a73d 761a 5e3d
00000330: 42ac 3a3d 6b68 923d 8f25 a33b 2f59 723d
00000340: a8d5 bc3d 50fe 903d a598 9dbd 9b1f ff3d
00000350: e867 e5bd 2d40 93bd 0113 333c 1658 1bba
00000360: 27b8 1c3d 00de 2e3c cee8 03be ac2b 1c3e
00000370: d140 063e a62c ba3d b711 ce3d 4d97 053e
00000380: d846 0b3e ecc4 f43d f481 f43d 97d1 8c3c
00000390: bbfa 50bb b638 4a3b a6f0 cc3d c4f7 7b3c
000003a0: 7c5d 013d 87e8 90bd 51e3 813d 6d8b 5f3d
000003b0: 75d2 bcbd 1172 ed3d 0706 90bd b6d8 abbd
000003c0: 41de 85bd d285 ddbb dea3 9c3d cc18 07bd
000003d0: 829b 453d 15b5 e9bd cc33 47bd 779a 65bd
000003e0: aea1 403c 9f4c 293b 56cb fb3d 84f3 f93d
000003f0: 1e16 103e c1a5 e4bc 2e2f 50bd a993 f33d
0.021253642 0.030013585 0.10054374 -0.14882149 0.06292144 -0.028252926 0.007375659 -0.12163104
-0.10105204 -0.029540583 0.12746264 0.030991947 0.13293886 -0.12572189 -0.04247616 0.07381879
-0.09207101 -0.009321748 -0.098914444 0.028764274 0.07361933 -0.010872864 0.07316219 0.11891275
-0.031113997 -0.11360462 0.016603151 -0.12035565 -0.022516428 0.103235036 0.042919658 0.10981497
0.031682998 -0.11074907 0.094525166 -0.12477923 -0.0905506 -0.08184864 0.0004039259 0.06500318
-0.13240346 -0.09079821 -0.06825883 -0.13509233 0.0763511 0.027521016 -0.09778171 -0.034650195
4.653066e-05 0.04771479 0.08308766 -0.03209793 0.052939698 -0.011285402 0.013505194 0.072295785
0.07953176 0.10939598 -0.075555466 0.124337904 -0.14010294 0.117019065 -0.039151408 -0.0869383
-0.0545327 -0.109914914 -0.075056195 -0.04557093 -0.026029069 0.08243625 0.07621877 0.0904073
-0.14714219 0.077631064 0.010006123 -0.0019695214 0.063464805 -0.07758689 0.08265985 -0.14146793
-0.027725186 0.045966886 -0.057186604 -0.063652426 -0.035038985 -0.047952298 0.044244017 0.027183801
-0.07142668 -0.034205467 0.01578458 -0.01010089 -0.088669024 -0.11615005 -0.003422899 0.0035219397
0.0049681417 -0.031079879 -0.04455126 -0.109737284 -0.018359957 0.12503153 -0.07607839 0.10392465
-0.0744338 -0.08154186 -0.12009631 -0.08739556 -0.023981864 -0.11842003 -0.034649715 0.06278649
-0.116070084 -0.03267865 0.056610614 -0.001718828 0.075923055 0.123442955 0.047922533 0.10463232
-0.028868474 -0.12793015 -0.011765626 -0.11540793 -0.1251218 -0.090190515 0.008560535 -0.01181675
0.119714536 0.0864389 -0.022114206 0.099006705 -0.097532734 -0.013230071 -0.026581697 -0.072815195
-0.08932665 0.114580914 -0.018951638 0.0071725775 -0.14334792 0.11967348 -0.02198113 -0.11608668
0.08929143 0.024385383 0.09559069 -0.020886907 -0.015631516 -0.0456164 0.07992563 -0.1356871
-0.020040357 0.067132846 -0.12661637 -0.061854493 -0.056707054 -0.056791477 0.042408645 -0.013912986
-0.07760829 -0.018817775 -0.041534517 0.09068929 -0.081981964 0.11251809 -0.03759835 -0.022339808
-0.0049507986 0.15901172 0.08779199 0.07047307 -0.061507337 0.12256488 0.017597165 -0.07131844
-0.05594339 0.05096744 -0.026926555 0.08445704 0.055619158 -0.076751076 -0.06608734 0.048796043
0.10593785 0.05557357 0.10113023 -0.043258246 0.005272627 -0.07918784 0.086828485 0.08036804
0.036238953 0.032770794 0.09207104 0.12511213 -0.11283476 0.04285342 -0.11468731 0.1056887
0.09229496 -0.06365907 0.08192595 0.054224454 0.045574434 0.071488224 0.0049788426 0.059167083
0.09220439 0.07079756 -0.0769513 0.124572 -0.11201459 -0.07189975 0.010929824 -0.00059259066
0.03826156 0.010673046 -0.12881777 0.15251034 0.13110663 0.09090547 0.100619726 0.13045998
0.13601243 0.11951622 0.11938849 0.017189784 -0.0031887728 0.0030856556 0.100068375 0.015378896
0.031583294 -0.07075601 0.06342185 0.054576326 -0.09219829 0.11594022 -0.070323996 -0.08390944
-0.06536532 -0.0067603374 0.07648443 -0.032982633 0.048244007 -0.11411492 -0.04863338 -0.056055512
0.011757297 0.0025833023 0.122946426 0.1220465 0.14070937 -0.027911069 -0.050826244 0.11893398

last_layer.bias f4 [3]
00000000: c46c 0ebd 1d68 723c 1e0a fcbc
-0.034771696 0.01479533 -0.030766543
